This is not an error. If you want to use low precision, i.e., fp16, please install the apex with cuda support (https://github.com/NVIDIA/apex) and update pytorch to 1.0
[Resize(size=(256, 128), interpolation=PIL.Image.BICUBIC), Pad(padding=10, fill=0, padding_mode=constant), RandomCrop(size=(256, 128), padding=0), RandomHorizontalFlip(p=0.5), ToTensor(), Normalize(mean=[0.485, 0.456, 0.406], std=[0.229, 0.224, 0.225]), <random_erasing.RandomErasing object at 0x7fe1fdaa09b0>]
1.1920928955078125e-06
ft_net(
  (model): ResNet(
    (conv1): Conv2d(3, 64, kernel_size=(7, 7), stride=(2, 2), padding=(3, 3), bias=False)
    (bn1): BatchNorm2d(64, eps=1e-05, momentum=0.1, affine=True, track_running_stats=True)
    (relu): ReLU(inplace)
    (maxpool): MaxPool2d(kernel_size=3, stride=2, padding=1, dilation=1, ceil_mode=False)
    (layer1): Sequential(
      (0): Bottleneck(
        (conv1): Conv2d(64, 64, kernel_size=(1, 1), stride=(1, 1), bias=False)
        (bn1): BatchNorm2d(64, eps=1e-05, momentum=0.1, affine=True, track_running_stats=True)
        (conv2): Conv2d(64, 64, kernel_size=(3, 3), stride=(1, 1), padding=(1, 1), bias=False)
        (bn2): BatchNorm2d(64, eps=1e-05, momentum=0.1, affine=True, track_running_stats=True)
        (conv3): Conv2d(64, 256, kernel_size=(1, 1), stride=(1, 1), bias=False)
        (bn3): BatchNorm2d(256, eps=1e-05, momentum=0.1, affine=True, track_running_stats=True)
        (relu): ReLU(inplace)
        (downsample): Sequential(
          (0): Conv2d(64, 256, kernel_size=(1, 1), stride=(1, 1), bias=False)
          (1): BatchNorm2d(256, eps=1e-05, momentum=0.1, affine=True, track_running_stats=True)
        )
      )
      (1): Bottleneck(
        (conv1): Conv2d(256, 64, kernel_size=(1, 1), stride=(1, 1), bias=False)
        (bn1): BatchNorm2d(64, eps=1e-05, momentum=0.1, affine=True, track_running_stats=True)
        (conv2): Conv2d(64, 64, kernel_size=(3, 3), stride=(1, 1), padding=(1, 1), bias=False)
        (bn2): BatchNorm2d(64, eps=1e-05, momentum=0.1, affine=True, track_running_stats=True)
        (conv3): Conv2d(64, 256, kernel_size=(1, 1), stride=(1, 1), bias=False)
        (bn3): BatchNorm2d(256, eps=1e-05, momentum=0.1, affine=True, track_running_stats=True)
        (relu): ReLU(inplace)
      )
      (2): Bottleneck(
        (conv1): Conv2d(256, 64, kernel_size=(1, 1), stride=(1, 1), bias=False)
        (bn1): BatchNorm2d(64, eps=1e-05, momentum=0.1, affine=True, track_running_stats=True)
        (conv2): Conv2d(64, 64, kernel_size=(3, 3), stride=(1, 1), padding=(1, 1), bias=False)
        (bn2): BatchNorm2d(64, eps=1e-05, momentum=0.1, affine=True, track_running_stats=True)
        (conv3): Conv2d(64, 256, kernel_size=(1, 1), stride=(1, 1), bias=False)
        (bn3): BatchNorm2d(256, eps=1e-05, momentum=0.1, affine=True, track_running_stats=True)
        (relu): ReLU(inplace)
      )
    )
    (layer2): Sequential(
      (0): Bottleneck(
        (conv1): Conv2d(256, 128, kernel_size=(1, 1), stride=(1, 1), bias=False)
        (bn1): BatchNorm2d(128, eps=1e-05, momentum=0.1, affine=True, track_running_stats=True)
        (conv2): Conv2d(128, 128, kernel_size=(3, 3), stride=(2, 2), padding=(1, 1), bias=False)
        (bn2): BatchNorm2d(128, eps=1e-05, momentum=0.1, affine=True, track_running_stats=True)
        (conv3): Conv2d(128, 512, kernel_size=(1, 1), stride=(1, 1), bias=False)
        (bn3): BatchNorm2d(512, eps=1e-05, momentum=0.1, affine=True, track_running_stats=True)
        (relu): ReLU(inplace)
        (downsample): Sequential(
          (0): Conv2d(256, 512, kernel_size=(1, 1), stride=(2, 2), bias=False)
          (1): BatchNorm2d(512, eps=1e-05, momentum=0.1, affine=True, track_running_stats=True)
        )
      )
      (1): Bottleneck(
        (conv1): Conv2d(512, 128, kernel_size=(1, 1), stride=(1, 1), bias=False)
        (bn1): BatchNorm2d(128, eps=1e-05, momentum=0.1, affine=True, track_running_stats=True)
        (conv2): Conv2d(128, 128, kernel_size=(3, 3), stride=(1, 1), padding=(1, 1), bias=False)
        (bn2): BatchNorm2d(128, eps=1e-05, momentum=0.1, affine=True, track_running_stats=True)
        (conv3): Conv2d(128, 512, kernel_size=(1, 1), stride=(1, 1), bias=False)
        (bn3): BatchNorm2d(512, eps=1e-05, momentum=0.1, affine=True, track_running_stats=True)
        (relu): ReLU(inplace)
      )
      (2): Bottleneck(
        (conv1): Conv2d(512, 128, kernel_size=(1, 1), stride=(1, 1), bias=False)
        (bn1): BatchNorm2d(128, eps=1e-05, momentum=0.1, affine=True, track_running_stats=True)
        (conv2): Conv2d(128, 128, kernel_size=(3, 3), stride=(1, 1), padding=(1, 1), bias=False)
        (bn2): BatchNorm2d(128, eps=1e-05, momentum=0.1, affine=True, track_running_stats=True)
        (conv3): Conv2d(128, 512, kernel_size=(1, 1), stride=(1, 1), bias=False)
        (bn3): BatchNorm2d(512, eps=1e-05, momentum=0.1, affine=True, track_running_stats=True)
        (relu): ReLU(inplace)
      )
      (3): Bottleneck(
        (conv1): Conv2d(512, 128, kernel_size=(1, 1), stride=(1, 1), bias=False)
        (bn1): BatchNorm2d(128, eps=1e-05, momentum=0.1, affine=True, track_running_stats=True)
        (conv2): Conv2d(128, 128, kernel_size=(3, 3), stride=(1, 1), padding=(1, 1), bias=False)
        (bn2): BatchNorm2d(128, eps=1e-05, momentum=0.1, affine=True, track_running_stats=True)
        (conv3): Conv2d(128, 512, kernel_size=(1, 1), stride=(1, 1), bias=False)
        (bn3): BatchNorm2d(512, eps=1e-05, momentum=0.1, affine=True, track_running_stats=True)
        (relu): ReLU(inplace)
      )
    )
    (layer3): Sequential(
      (0): Bottleneck(
        (conv1): Conv2d(512, 256, kernel_size=(1, 1), stride=(1, 1), bias=False)
        (bn1): BatchNorm2d(256, eps=1e-05, momentum=0.1, affine=True, track_running_stats=True)
        (conv2): Conv2d(256, 256, kernel_size=(3, 3), stride=(2, 2), padding=(1, 1), bias=False)
        (bn2): BatchNorm2d(256, eps=1e-05, momentum=0.1, affine=True, track_running_stats=True)
        (conv3): Conv2d(256, 1024, kernel_size=(1, 1), stride=(1, 1), bias=False)
        (bn3): BatchNorm2d(1024, eps=1e-05, momentum=0.1, affine=True, track_running_stats=True)
        (relu): ReLU(inplace)
        (downsample): Sequential(
          (0): Conv2d(512, 1024, kernel_size=(1, 1), stride=(2, 2), bias=False)
          (1): BatchNorm2d(1024, eps=1e-05, momentum=0.1, affine=True, track_running_stats=True)
        )
      )
      (1): Bottleneck(
        (conv1): Conv2d(1024, 256, kernel_size=(1, 1), stride=(1, 1), bias=False)
        (bn1): BatchNorm2d(256, eps=1e-05, momentum=0.1, affine=True, track_running_stats=True)
        (conv2): Conv2d(256, 256, kernel_size=(3, 3), stride=(1, 1), padding=(1, 1), bias=False)
        (bn2): BatchNorm2d(256, eps=1e-05, momentum=0.1, affine=True, track_running_stats=True)
        (conv3): Conv2d(256, 1024, kernel_size=(1, 1), stride=(1, 1), bias=False)
        (bn3): BatchNorm2d(1024, eps=1e-05, momentum=0.1, affine=True, track_running_stats=True)
        (relu): ReLU(inplace)
      )
      (2): Bottleneck(
        (conv1): Conv2d(1024, 256, kernel_size=(1, 1), stride=(1, 1), bias=False)
        (bn1): BatchNorm2d(256, eps=1e-05, momentum=0.1, affine=True, track_running_stats=True)
        (conv2): Conv2d(256, 256, kernel_size=(3, 3), stride=(1, 1), padding=(1, 1), bias=False)
        (bn2): BatchNorm2d(256, eps=1e-05, momentum=0.1, affine=True, track_running_stats=True)
        (conv3): Conv2d(256, 1024, kernel_size=(1, 1), stride=(1, 1), bias=False)
        (bn3): BatchNorm2d(1024, eps=1e-05, momentum=0.1, affine=True, track_running_stats=True)
        (relu): ReLU(inplace)
      )
      (3): Bottleneck(
        (conv1): Conv2d(1024, 256, kernel_size=(1, 1), stride=(1, 1), bias=False)
        (bn1): BatchNorm2d(256, eps=1e-05, momentum=0.1, affine=True, track_running_stats=True)
        (conv2): Conv2d(256, 256, kernel_size=(3, 3), stride=(1, 1), padding=(1, 1), bias=False)
        (bn2): BatchNorm2d(256, eps=1e-05, momentum=0.1, affine=True, track_running_stats=True)
        (conv3): Conv2d(256, 1024, kernel_size=(1, 1), stride=(1, 1), bias=False)
        (bn3): BatchNorm2d(1024, eps=1e-05, momentum=0.1, affine=True, track_running_stats=True)
        (relu): ReLU(inplace)
      )
      (4): Bottleneck(
        (conv1): Conv2d(1024, 256, kernel_size=(1, 1), stride=(1, 1), bias=False)
        (bn1): BatchNorm2d(256, eps=1e-05, momentum=0.1, affine=True, track_running_stats=True)
        (conv2): Conv2d(256, 256, kernel_size=(3, 3), stride=(1, 1), padding=(1, 1), bias=False)
        (bn2): BatchNorm2d(256, eps=1e-05, momentum=0.1, affine=True, track_running_stats=True)
        (conv3): Conv2d(256, 1024, kernel_size=(1, 1), stride=(1, 1), bias=False)
        (bn3): BatchNorm2d(1024, eps=1e-05, momentum=0.1, affine=True, track_running_stats=True)
        (relu): ReLU(inplace)
      )
      (5): Bottleneck(
        (conv1): Conv2d(1024, 256, kernel_size=(1, 1), stride=(1, 1), bias=False)
        (bn1): BatchNorm2d(256, eps=1e-05, momentum=0.1, affine=True, track_running_stats=True)
        (conv2): Conv2d(256, 256, kernel_size=(3, 3), stride=(1, 1), padding=(1, 1), bias=False)
        (bn2): BatchNorm2d(256, eps=1e-05, momentum=0.1, affine=True, track_running_stats=True)
        (conv3): Conv2d(256, 1024, kernel_size=(1, 1), stride=(1, 1), bias=False)
        (bn3): BatchNorm2d(1024, eps=1e-05, momentum=0.1, affine=True, track_running_stats=True)
        (relu): ReLU(inplace)
      )
    )
    (layer4): Sequential(
      (0): Bottleneck(
        (conv1): Conv2d(1024, 512, kernel_size=(1, 1), stride=(1, 1), bias=False)
        (bn1): BatchNorm2d(512, eps=1e-05, momentum=0.1, affine=True, track_running_stats=True)
        (conv2): Conv2d(512, 512, kernel_size=(3, 3), stride=(1, 1), padding=(1, 1), bias=False)
        (bn2): BatchNorm2d(512, eps=1e-05, momentum=0.1, affine=True, track_running_stats=True)
        (conv3): Conv2d(512, 2048, kernel_size=(1, 1), stride=(1, 1), bias=False)
        (bn3): BatchNorm2d(2048, eps=1e-05, momentum=0.1, affine=True, track_running_stats=True)
        (relu): ReLU(inplace)
        (downsample): Sequential(
          (0): Conv2d(1024, 2048, kernel_size=(1, 1), stride=(1, 1), bias=False)
          (1): BatchNorm2d(2048, eps=1e-05, momentum=0.1, affine=True, track_running_stats=True)
        )
      )
      (1): Bottleneck(
        (conv1): Conv2d(2048, 512, kernel_size=(1, 1), stride=(1, 1), bias=False)
        (bn1): BatchNorm2d(512, eps=1e-05, momentum=0.1, affine=True, track_running_stats=True)
        (conv2): Conv2d(512, 512, kernel_size=(3, 3), stride=(1, 1), padding=(1, 1), bias=False)
        (bn2): BatchNorm2d(512, eps=1e-05, momentum=0.1, affine=True, track_running_stats=True)
        (conv3): Conv2d(512, 2048, kernel_size=(1, 1), stride=(1, 1), bias=False)
        (bn3): BatchNorm2d(2048, eps=1e-05, momentum=0.1, affine=True, track_running_stats=True)
        (relu): ReLU(inplace)
      )
      (2): Bottleneck(
        (conv1): Conv2d(2048, 512, kernel_size=(1, 1), stride=(1, 1), bias=False)
        (bn1): BatchNorm2d(512, eps=1e-05, momentum=0.1, affine=True, track_running_stats=True)
        (conv2): Conv2d(512, 512, kernel_size=(3, 3), stride=(1, 1), padding=(1, 1), bias=False)
        (bn2): BatchNorm2d(512, eps=1e-05, momentum=0.1, affine=True, track_running_stats=True)
        (conv3): Conv2d(512, 2048, kernel_size=(1, 1), stride=(1, 1), bias=False)
        (bn3): BatchNorm2d(2048, eps=1e-05, momentum=0.1, affine=True, track_running_stats=True)
        (relu): ReLU(inplace)
      )
    )
    (avgpool): AdaptiveAvgPool2d(output_size=(1, 1))
    (fc): Linear(in_features=2048, out_features=1000, bias=True)
  )
  (class_0): ClassBlock(
    (dropout): Dropout(p=0.5)
    (add_block): Sequential(
      (0): Linear(in_features=2048, out_features=128, bias=True)
      (1): BatchNorm1d(128, eps=1e-05, momentum=0.1, affine=True, track_running_stats=True)
      (2): Dropout(p=0.5)
    )
    (classifier): Sequential(
      (0): Linear(in_features=128, out_features=2, bias=True)
    )
  )
  (class_1): ClassBlock(
    (dropout): Dropout(p=0.5)
    (add_block): Sequential(
      (0): Linear(in_features=2048, out_features=128, bias=True)
      (1): BatchNorm1d(128, eps=1e-05, momentum=0.1, affine=True, track_running_stats=True)
      (2): Dropout(p=0.5)
    )
    (classifier): Sequential(
      (0): Linear(in_features=128, out_features=2, bias=True)
    )
  )
  (class_2): ClassBlock(
    (dropout): Dropout(p=0.5)
    (add_block): Sequential(
      (0): Linear(in_features=2048, out_features=128, bias=True)
      (1): BatchNorm1d(128, eps=1e-05, momentum=0.1, affine=True, track_running_stats=True)
      (2): Dropout(p=0.5)
    )
    (classifier): Sequential(
      (0): Linear(in_features=128, out_features=2, bias=True)
    )
  )
  (class_3): ClassBlock(
    (dropout): Dropout(p=0.5)
    (add_block): Sequential(
      (0): Linear(in_features=2048, out_features=128, bias=True)
      (1): BatchNorm1d(128, eps=1e-05, momentum=0.1, affine=True, track_running_stats=True)
      (2): Dropout(p=0.5)
    )
    (classifier): Sequential(
      (0): Linear(in_features=128, out_features=2, bias=True)
    )
  )
  (class_4): ClassBlock(
    (dropout): Dropout(p=0.5)
    (add_block): Sequential(
      (0): Linear(in_features=2048, out_features=128, bias=True)
      (1): BatchNorm1d(128, eps=1e-05, momentum=0.1, affine=True, track_running_stats=True)
      (2): Dropout(p=0.5)
    )
    (classifier): Sequential(
      (0): Linear(in_features=128, out_features=2, bias=True)
    )
  )
  (class_5): ClassBlock(
    (dropout): Dropout(p=0.5)
    (add_block): Sequential(
      (0): Linear(in_features=2048, out_features=128, bias=True)
      (1): BatchNorm1d(128, eps=1e-05, momentum=0.1, affine=True, track_running_stats=True)
      (2): Dropout(p=0.5)
    )
    (classifier): Sequential(
      (0): Linear(in_features=128, out_features=2, bias=True)
    )
  )
  (class_6): ClassBlock(
    (dropout): Dropout(p=0.5)
    (add_block): Sequential(
      (0): Linear(in_features=2048, out_features=128, bias=True)
      (1): BatchNorm1d(128, eps=1e-05, momentum=0.1, affine=True, track_running_stats=True)
      (2): Dropout(p=0.5)
    )
    (classifier): Sequential(
      (0): Linear(in_features=128, out_features=2, bias=True)
    )
  )
  (class_7): ClassBlock(
    (dropout): Dropout(p=0.5)
    (add_block): Sequential(
      (0): Linear(in_features=2048, out_features=128, bias=True)
      (1): BatchNorm1d(128, eps=1e-05, momentum=0.1, affine=True, track_running_stats=True)
      (2): Dropout(p=0.5)
    )
    (classifier): Sequential(
      (0): Linear(in_features=128, out_features=2, bias=True)
    )
  )
  (class_8): ClassBlock(
    (dropout): Dropout(p=0.5)
    (add_block): Sequential(
      (0): Linear(in_features=2048, out_features=128, bias=True)
      (1): BatchNorm1d(128, eps=1e-05, momentum=0.1, affine=True, track_running_stats=True)
      (2): Dropout(p=0.5)
    )
    (classifier): Sequential(
      (0): Linear(in_features=128, out_features=2, bias=True)
    )
  )
  (class_9): ClassBlock(
    (dropout): Dropout(p=0.5)
    (add_block): Sequential(
      (0): Linear(in_features=2048, out_features=128, bias=True)
      (1): BatchNorm1d(128, eps=1e-05, momentum=0.1, affine=True, track_running_stats=True)
      (2): Dropout(p=0.5)
    )
    (classifier): Sequential(
      (0): Linear(in_features=128, out_features=2, bias=True)
    )
  )
  (class_10): ClassBlock(
    (dropout): Dropout(p=0.5)
    (add_block): Sequential(
      (0): Linear(in_features=2048, out_features=128, bias=True)
      (1): BatchNorm1d(128, eps=1e-05, momentum=0.1, affine=True, track_running_stats=True)
      (2): Dropout(p=0.5)
    )
    (classifier): Sequential(
      (0): Linear(in_features=128, out_features=2, bias=True)
    )
  )
  (class_11): ClassBlock(
    (dropout): Dropout(p=0.5)
    (add_block): Sequential(
      (0): Linear(in_features=2048, out_features=128, bias=True)
      (1): BatchNorm1d(128, eps=1e-05, momentum=0.1, affine=True, track_running_stats=True)
      (2): Dropout(p=0.5)
    )
    (classifier): Sequential(
      (0): Linear(in_features=128, out_features=2, bias=True)
    )
  )
  (class_12): ClassBlock(
    (dropout): Dropout(p=0.5)
    (add_block): Sequential(
      (0): Linear(in_features=2048, out_features=128, bias=True)
      (1): BatchNorm1d(128, eps=1e-05, momentum=0.1, affine=True, track_running_stats=True)
      (2): Dropout(p=0.5)
    )
    (classifier): Sequential(
      (0): Linear(in_features=128, out_features=2, bias=True)
    )
  )
  (class_13): ClassBlock(
    (dropout): Dropout(p=0.5)
    (add_block): Sequential(
      (0): Linear(in_features=2048, out_features=128, bias=True)
      (1): BatchNorm1d(128, eps=1e-05, momentum=0.1, affine=True, track_running_stats=True)
      (2): Dropout(p=0.5)
    )
    (classifier): Sequential(
      (0): Linear(in_features=128, out_features=2, bias=True)
    )
  )
  (class_14): ClassBlock(
    (dropout): Dropout(p=0.5)
    (add_block): Sequential(
      (0): Linear(in_features=2048, out_features=128, bias=True)
      (1): BatchNorm1d(128, eps=1e-05, momentum=0.1, affine=True, track_running_stats=True)
      (2): Dropout(p=0.5)
    )
    (classifier): Sequential(
      (0): Linear(in_features=128, out_features=2, bias=True)
    )
  )
  (class_15): ClassBlock(
    (dropout): Dropout(p=0.5)
    (add_block): Sequential(
      (0): Linear(in_features=2048, out_features=128, bias=True)
      (1): BatchNorm1d(128, eps=1e-05, momentum=0.1, affine=True, track_running_stats=True)
      (2): Dropout(p=0.5)
    )
    (classifier): Sequential(
      (0): Linear(in_features=128, out_features=2, bias=True)
    )
  )
  (class_16): ClassBlock(
    (dropout): Dropout(p=0.5)
    (add_block): Sequential(
      (0): Linear(in_features=2048, out_features=128, bias=True)
      (1): BatchNorm1d(128, eps=1e-05, momentum=0.1, affine=True, track_running_stats=True)
      (2): Dropout(p=0.5)
    )
    (classifier): Sequential(
      (0): Linear(in_features=128, out_features=2, bias=True)
    )
  )
  (class_17): ClassBlock(
    (dropout): Dropout(p=0.5)
    (add_block): Sequential(
      (0): Linear(in_features=2048, out_features=128, bias=True)
      (1): BatchNorm1d(128, eps=1e-05, momentum=0.1, affine=True, track_running_stats=True)
      (2): Dropout(p=0.5)
    )
    (classifier): Sequential(
      (0): Linear(in_features=128, out_features=2, bias=True)
    )
  )
  (class_18): ClassBlock(
    (dropout): Dropout(p=0.5)
    (add_block): Sequential(
      (0): Linear(in_features=2048, out_features=128, bias=True)
      (1): BatchNorm1d(128, eps=1e-05, momentum=0.1, affine=True, track_running_stats=True)
      (2): Dropout(p=0.5)
    )
    (classifier): Sequential(
      (0): Linear(in_features=128, out_features=2, bias=True)
    )
  )
  (class_19): ClassBlock(
    (dropout): Dropout(p=0.5)
    (add_block): Sequential(
      (0): Linear(in_features=2048, out_features=128, bias=True)
      (1): BatchNorm1d(128, eps=1e-05, momentum=0.1, affine=True, track_running_stats=True)
      (2): Dropout(p=0.5)
    )
    (classifier): Sequential(
      (0): Linear(in_features=128, out_features=2, bias=True)
    )
  )
  (class_20): ClassBlock(
    (dropout): Dropout(p=0.5)
    (add_block): Sequential(
      (0): Linear(in_features=2048, out_features=128, bias=True)
      (1): BatchNorm1d(128, eps=1e-05, momentum=0.1, affine=True, track_running_stats=True)
      (2): Dropout(p=0.5)
    )
    (classifier): Sequential(
      (0): Linear(in_features=128, out_features=2, bias=True)
    )
  )
  (class_21): ClassBlock(
    (dropout): Dropout(p=0.5)
    (add_block): Sequential(
      (0): Linear(in_features=2048, out_features=128, bias=True)
      (1): BatchNorm1d(128, eps=1e-05, momentum=0.1, affine=True, track_running_stats=True)
      (2): Dropout(p=0.5)
    )
    (classifier): Sequential(
      (0): Linear(in_features=128, out_features=2, bias=True)
    )
  )
  (class_22): ClassBlock(
    (dropout): Dropout(p=0.5)
    (add_block): Sequential(
      (0): Linear(in_features=2048, out_features=128, bias=True)
      (1): BatchNorm1d(128, eps=1e-05, momentum=0.1, affine=True, track_running_stats=True)
      (2): Dropout(p=0.5)
    )
    (classifier): Sequential(
      (0): Linear(in_features=128, out_features=2, bias=True)
    )
  )
  (class_23): ClassBlock(
    (dropout): Dropout(p=0.5)
    (add_block): Sequential(
      (0): Linear(in_features=2048, out_features=128, bias=True)
      (1): BatchNorm1d(128, eps=1e-05, momentum=0.1, affine=True, track_running_stats=True)
      (2): Dropout(p=0.5)
    )
    (classifier): Sequential(
      (0): Linear(in_features=128, out_features=2, bias=True)
    )
  )
  (class_24): ClassBlock(
    (dropout): Dropout(p=0.5)
    (add_block): Sequential(
      (0): Linear(in_features=2048, out_features=128, bias=True)
      (1): BatchNorm1d(128, eps=1e-05, momentum=0.1, affine=True, track_running_stats=True)
      (2): Dropout(p=0.5)
    )
    (classifier): Sequential(
      (0): Linear(in_features=128, out_features=2, bias=True)
    )
  )
  (class_25): ClassBlock(
    (dropout): Dropout(p=0.5)
    (add_block): Sequential(
      (0): Linear(in_features=2048, out_features=128, bias=True)
      (1): BatchNorm1d(128, eps=1e-05, momentum=0.1, affine=True, track_running_stats=True)
      (2): Dropout(p=0.5)
    )
    (classifier): Sequential(
      (0): Linear(in_features=128, out_features=2, bias=True)
    )
  )
  (class_26): ClassBlock(
    (dropout): Dropout(p=0.5)
    (add_block): Sequential(
      (0): Linear(in_features=2048, out_features=128, bias=True)
      (1): BatchNorm1d(128, eps=1e-05, momentum=0.1, affine=True, track_running_stats=True)
      (2): Dropout(p=0.5)
    )
    (classifier): Sequential(
      (0): Linear(in_features=128, out_features=2, bias=True)
    )
  )
  (class_27): ClassBlock(
    (dropout): Dropout(p=0.5)
    (add_block): Sequential(
      (0): Linear(in_features=2048, out_features=128, bias=True)
      (1): BatchNorm1d(128, eps=1e-05, momentum=0.1, affine=True, track_running_stats=True)
      (2): Dropout(p=0.5)
    )
    (classifier): Sequential(
      (0): Linear(in_features=128, out_features=2, bias=True)
    )
  )
  (class_28): ClassBlock(
    (dropout): Dropout(p=0.5)
    (add_block): Sequential(
      (0): Linear(in_features=2048, out_features=128, bias=True)
      (1): BatchNorm1d(128, eps=1e-05, momentum=0.1, affine=True, track_running_stats=True)
      (2): Dropout(p=0.5)
    )
    (classifier): Sequential(
      (0): Linear(in_features=128, out_features=2, bias=True)
    )
  )
  (class_29): ClassBlock(
    (dropout): Dropout(p=0.5)
    (add_block): Sequential(
      (0): Linear(in_features=2048, out_features=128, bias=True)
      (1): BatchNorm1d(128, eps=1e-05, momentum=0.1, affine=True, track_running_stats=True)
      (2): Dropout(p=0.5)
    )
    (classifier): Sequential(
      (0): Linear(in_features=128, out_features=2, bias=True)
    )
  )
  (class_30): ClassBlock(
    (dropout): Dropout(p=0.5)
    (add_block): Sequential(
      (0): Linear(in_features=2048, out_features=256, bias=True)
      (1): BatchNorm1d(256, eps=1e-05, momentum=0.1, affine=True, track_running_stats=True)
    )
    (classifier): Sequential(
      (0): Linear(in_features=256, out_features=751, bias=True)
    )
  )
)
Epoch 0/59
----------
train Loss: 4.0115 Acc: 0.2904
Training complete in 1m 21s

Epoch 1/59
----------
train Loss: 1.1878 Acc: 0.7490
Training complete in 2m 37s

Epoch 2/59
----------
train Loss: 0.5089 Acc: 0.8877
Training complete in 3m 53s

Epoch 3/59
----------
train Loss: 0.2934 Acc: 0.9329
Training complete in 5m 8s

Epoch 4/59
----------
…
